app/src/main/ml/imumodel.tflite (tflite, 49284 bytes, 8 tensors)

sequential/conv1d/BiasAdd/ReadVariableOp f4 [32]
0	0x00000000	0.0
1	0x00000000	0.0
2	0x00000000	0.0
3	0x00000000	0.0
4	0x00000000	0.0
5	0x00000000	0.0
6	0x00000000	0.0
7	0x00000000	0.0
8	0x00000000	0.0
9	0x00000000	0.0
10	0x00000000	0.0
11	0x00000000	0.0
12	0x00000000	0.0
13	0x00000000	0.0
14	0x00000000	0.0
15	0x00000000	0.0
16	0x00000000	0.0
17	0x00000000	0.0
18	0x00000000	0.0
19	0x00000000	0.0
20	0x00000000	0.0
21	0x00000000	0.0
22	0x00000000	0.0
23	0x00000000	0.0
24	0x00000000	0.0
25	0x00000000	0.0
26	0x00000000	0.0
27	0x00000000	0.0
28	0x00000000	0.0
29	0x00000000	0.0
30	0x00000000	0.0
31	0x00000000	0.0

sequential/conv1d_1/BiasAdd/ReadVariableOp f4 [8]
0	0x00000000	0.0
1	0x00000000	0.0
2	0x00000000	0.0
3	0x00000000	0.0
4	0x00000000	0.0
5	0x00000000	0.0
6	0x00000000	0.0
7	0x00000000	0.0

sequential/conv1d/Conv1D f4 [32, 1, 8, 6]
0	0x3dd5f680	0.10447407
1	0xbe3b816d	-0.18311091
2	0x3dfef4e1	0.12449051
3	0xbdc057c5	-0.09391741
4	0xbdc49475	-0.095986284
5	0xbd9887c5	-0.07447771
6	0x3e203294	0.15644294
7	0xbe8216ea	-0.25408107
8	0xbd420b08	-0.0473738
9	0xbec8eab8	-0.39241576
10	0xbbd7e7dd	-0.0065889196
11	0xbe002914	-0.1251567
12	0x3cee430a	0.029084701
13	0xbdcdad8e	-0.100428686
14	0x3ddbc2e7	0.10730534
15	0x3e0576e4	0.13033634
16	0x3eaabcd7	0.33347198
17	0x3e49d3cb	0.19709699
18	0x3e67daf3	0.22642116
19	0x3d839053	0.06424012
20	0x3d823c8f	0.06359207
21	0xbe17e747	-0.14834319
22	0x3ca53058	0.020164654
23	0xbd755c22	-0.059902318
24	0xbcd2f5bd	-0.025751943
25	0x3e3f5369	0.18684162
26	0xbe6fa63a	-0.23403254
27	0x3db2ed0d	0.0873662
28	0xbe606469	-0.21913303
29	0x3e76d681	0.24105264
30	0xbeb46142	-0.35230452
31	0x3e575e2d	0.21032019
32	0xbe1ab1b1	-0.15106846
33	0xbdd8a56e	-0.10578428
34	0xbdbd6b49	-0.09248979
35	0xbe21b80f	-0.15792869
36	0x3e342433	0.17591934
37	0x3c850120	0.016235888
38	0x3e83730f	0.2567372
39	0x3e3dcc05	0.18534859
40	0xbdca8b3b	-0.09889837
41	0x3ebd4f6c	0.36974657
42	0x3e3ff98a	0.18747535
43	0xbee4bc7c	-0.44675052
44	0x3e887e74	0.26658976
45	0x3de65700	0.11247063
46	0x3e2f3a0f	0.17111991
47	0x3e5f8191	0.2182677
48	0x3e929065	0.2862579
49	0xbc9f8ed8	-0.019477293
50	0xbe337374	-0.1752451
51	0xbe8036d2	-0.25041825
52	0x3dcee25b	0.10101768
53	0xbe4be746	-0.19912443
54	0x3d36ce31	0.044630233
55	0x3dc946d2	0.09827961
56	0xbe1e46d5	-0.15456708
57	0xbd91a228	-0.07111007
58	0xbdd9c1cc	-0.10632667
59	0x3da0f70a	0.07859619
60	0x3d0f1a1c	0.03493701
61	0x3e0598bd	0.13046546
62	0x3e6b57f0	0.22982764
63	0xbe0c0f3e	-0.1367769
64	0xbe01857d	-0.12648578
65	0x3c15c6e2	0.009141656
66	0xbe97c41d	-0.2964181
67	0x3e10a133	0.14123993
68	0x3e12ce3e	0.14336488
69	0xbd0f57f2	-0.03499598
70	0xbdacc186	-0.08435349
71	0x3e728067	0.23681794
72	0xbe863a2c	-0.26216257
73	0x3d28ab24	0.041178837
74	0x3e38a77c	0.1803264
75	0x3eabf519	0.33585432
76	0x3e24c169	0.16089405
77	0xbe309451	-0.17244078
78	0x3dc02b93	0.09383311
79	0xbe8cc725	-0.27495685
80	0x3e990885	0.29889312
81	0xbceab4c2	-0.028650645
82	0x3be81a5e	0.0070832213
83	0x3ec566fe	0.3855514
84	0x3d6ad4a2	0.05733169
85	0xbe5e7d14	-0.21727401
86	0xbdfcbfc1	-0.12341262
87	0x3ea87ad5	0.32906213
88	0xbd258a37	-0.040415015
89	0x3cb70443	0.0223409
90	0xbeabfb82	-0.33590323
91	0x3eac355c	0.3363446
92	0x3e6d7d9e	0.2319245
93	0xbc5f0600	-0.01361227
94	0xbd1d66d2	-0.038428135
95	0x3cb22e41	0.021750571
96	0x3eb3246f	0.34988734
97	0xbdfd0244	-0.12353948
98	0xbe5a691c	-0.21329159
99	0x3eae00e0	0.33985043
100	0x3e1413c8	0.14460671
101	0xbdf592ab	-0.11990865
102	0xbd2a09cd	-0.041513253
103	0x3deeabab	0.11653837
104	0x3d8212f5	0.06351272
105	0x3ced7e21	0.028990807
106	0xbe93c476	-0.28860825
107	0x3c5501a0	0.013000876
108	0x3d01ff74	0.03173776
109	0xbd84a48c	-0.06476697
110	0x3c9b763f	0.018977283
111	0xbea1db1a	-0.31612474
112	0xbdfb0203	-0.12256243
113	0xbdd4dbcc	-0.103934854
114	0x3dbd97c8	0.092574656
115	0x3ce9d0c8	0.028541937
116	0x3e823dcb	0.2543777
117	0xbec9d766	-0.39422148
118	0xbed5ad56	-0.41733807
119	0x3d6a93c9	0.057269845
120	0x3eb1338b	0.34609637
121	0x3ececb7a	0.40389615
122	0x3b508743	0.0031818904
123	0x3cb1a429	0.021684723
124	0x3e53dd66	0.20689926
125	0x3ebfe59b	0.37479863
126	0x3dbdd46e	0.09269033
127	0xbe49184c	-0.19638175
128	0x3c8282ac	0.01593145
129	0x3db9b15c	0.09067032
130	0xbeb1f611	-0.34758046
131	0x3e7af37f	0.24506949
132	0x3e2b3327	0.16718732
133	0x3eadcea0	0.33946705
134	0x3e06a491	0.13148715
135	0xbd0a64bd	-0.033787478
136	0xbc9a2b5b	-0.018819502
137	0x3e9d990e	0.30780834
138	0xbdd40d91	-0.1035415
139	0xbac08d43	-0.0014690537
140	0x3dcbea91	0.09956849
141	0xbd0199a1	-0.031640653
142	0xbecbf7e2	-0.39837557
143	0xbe10bbd9	-0.14134158
144	0xbe227ee0	-0.15868711
145	0xbe8426e8	-0.25810933
146	0xbe06df56	-0.13171133
147	0x3e2d0c5e	0.16899249
148	0xbee49236	-0.446428
149	0x3e39f196	0.18158564
150	0x3b9740e5	0.0046158903
151	0x3e351fc8	0.17687905
152	0xbe53700d	-0.20648213
153	0xbda8c02a	-0.082397774
154	0x3edba707	0.4290087
155	0x3ea225cb	0.3166946
156	0x3b3012b4	0.0026866617
157	0xbd9ea35b	-0.07746001
158	0xbd72412b	-0.05914418
159	0x3c258f61	0.010104985
160	0x3cb78c01	0.022405626
161	0x3dfdae39	0.12386746
162	0xbc9eb6dd	-0.019374305
163	0xbe005401	-0.12532045
164	0xbe09687a	-0.13418761
165	0x3b7081cc	0.0036698459
166	0x3e8cbe5c	0.27488983
167	0xbcb742d7	-0.022370739
168	0xbd1f3c4a	-0.038875856
169	0x3d9717ff	0.07377624
170	0xbe070c5f	-0.13188313
171	0xbd107b6d	-0.035273958
172	0xbe64decb	-0.22350614
173	0xbe8cac91	-0.27475408
174	0xbeb0e813	-0.3455206
175	0x3e1df408	0.15425122
176	0xbe368e36	-0.17827687
177	0x3e88314f	0.2660012
178	0xbea80039	-0.3281267
179	0x3d165ceb	0.036709707
180	0xbe2bebb2	-0.1678913
181	0xbe501c54	-0.20323306
182	0x3e50c20d	0.20386524
183	0x3e1368f0	0.14395499
184	0x3e9ecab3	0.31014022
185	0x3db45072	0.08804406
186	0x3d4edc49	0.05050305
187	0xbde2c8a8	-0.110734284
188	0xba06545e	-0.0005124266
189	0x3d989b2f	0.07451474
190	0x3d3772af	0.044787105
191	0xbd59b340	-0.05314946
192	0x3e5ff02a	0.21868959
193	0xbde7417d	-0.11291788
194	0x3e59fbfa	0.21287528
195	0xbd7279ef	-0.059198316
196	0xbe33c216	-0.17554507
197	0x3e857401	0.26065066
198	0x3e0b54d4	0.13606578
199	0xbd2a705f	-0.04161107
200	0x3ccdd9a1	0.025128188
201	0x3e384946	0.17996702
202	0x3e780d6f	0.24223875
203	0x3c485041	0.012226165
204	0xbe87edae	-0.26548523
205	0x3df6e22c	0.120548576
206	0x3e3d0853	0.18460207
207	0x3d26d807	0.040733363
208	0x3c1f3143	0.009716335
209	0x3d92d4ad	0.07169471
210	0xbe991525	-0.29898944
211	0x3d3288ee	0.043587618
212	0x3e6d7434	0.23188859
213	0x3e4a9c71	0.1978624
214	0xbde58e7a	-0.11208816
215	0xbe75b8bf	-0.23996256
216	0xbd1f45ad	-0.038884807
217	0x3daeb53c	0.085306615
218	0xbdcb4d33	-0.09926834
219	0x3d80ef72	0.062956706
220	0xbeb34303	-0.35012063
221	0x3e812f9d	0.2523164
222	0xbdb85646	-0.0900083
223	0x3bcdd992	0.00628204
224	0xbce28818	-0.027652785
225	0xbd98bc0a	-0.074577406
226	0x3dedd67d	0.11613176
227	0xbe86162c	-0.2618879
228	0xbdda976a	-0.10673411
229	0x3ed628d7	0.41828033
230	0xbd7af63c	-0.061269984
231	0x3d679b30	0.056544483
232	0x3e3766b2	0.17910269
233	0x3ea47c8d	0.32126275
234	0x3e0fb416	0.14033541
235	0x3ccef438	0.025262937
236	0x3e538da2	0.20659497
237	0x3e954788	0.29156137
238	0x3db1b1d0	0.08676493
239	0x3e81f0d5	0.25379053
240	0xbcf0f66f	-0.029414384
241	0x3e85e15c	0.26148498
242	0x3e038793	0.12844686
243	0x3ee3de0a	0.4450534
244	0x3d3c2f28	0.04594341
245	0xbe7cf6aa	-0.2470347
246	0x3e6e9562	0.23299173
247	0x3a30a393	0.00067382416
248	0x3c052ae6	0.008127904
249	0xbe0eb091	-0.13934542
250	0xbe8a8e8f	-0.2706189
251	0x3cc71e55	0.024306456
252	0x3ea24586	0.31693667
253	0xbed74ced	-0.42050877
254	0xbe0e16f8	-0.1387595
255	0x3d6dad0d	0.058026362

sequential/conv1d_1/Conv1D f4 [8, 1, 4, 32]
0	0x3d830665	0.06397704
1	0x3e37fc78	0.17967403
2	0x3dfb7a7d	0.12279222
3	0x3e082655	0.13295873
4	0xbde5a57f	-0.112132065
5	0xbd945a3f	-0.072437756
6	0xbe8e3798	-0.2777679
7	0xbc68f480	-0.01421845
8	0x3d9c20dd	0.07623456
9	0xbc1add3d	-0.009452161
10	0xbd218f17	-0.0394431
11	0x3def235e	0.11676668
12	0xbd6b9228	-0.057512432
13	0xbe88c317	-0.26711342
14	0xbe4c9c71	-0.19981553
15	0xbdd7715c	-0.105196685
16	0xbd70c29f	-0.058779355
17	0x3e5b52d6	0.21418318
18	0xbe7cdc8e	-0.2469351
19	0x3ccd29d3	0.025044357
20	0xbd3acf8e	-0.045608096
21	0xbd13fc47	-0.036129262
22	0xbe1afd03	-0.15135579
23	0xbd639700	-0.055563927
24	0x3dc4337f	0.095801346
25	0xbcbb3a75	-0.022855023
26	0xbd13c767	-0.036078837
27	0x3dede583	0.116160415
28	0xbe1f5393	-0.15559225
29	0x3debeba5	0.11519555
30	0xbdaf22b5	-0.08551542
31	0x3de79ef8	0.11309618
32	0xbceda73d	-0.02901041
33	0xbe683f7f	-0.22680472
34	0xbdf176f3	-0.11790266
35	0x3d9388b8	0.072038114
36	0xbe761268	-0.24030459
37	0x3df9b18b	0.12192067
38	0x3e3207d9	0.17385806
39	0x3e19e157	0.15027367
40	0xbb8436f7	-0.0040348726
41	0xbe05fc48	-0.13084519
42	0xbd24b191	-0.040208403
43	0x3d77b975	0.0604796
44	0xbd9cf6c0	-0.07664251
45	0xbd9a0994	-0.07521358
46	0xbe4d7579	-0.20064344
47	0xbd1083be	-0.03528189
48	0x3c91e7ae	0.017810669
49	0xbe87c39b	-0.26516423
50	0xbcfd4f30	-0.030921549
51	0x3d825932	0.06364669
52	0xbd7be72c	-0.06149976
53	0x3d38c172	0.04510636
54	0x3d8e5eb3	0.06951656
55	0xbdadf6e2	-0.08494355
56	0x3d869367	0.065710835
57	0xbd8b6537	-0.068064146
58	0x3e56ddc2	0.20983031
59	0x3e5e1038	0.21685874
60	0x3da375b9	0.07981438
61	0x3e5bf89c	0.21481556
62	0x3e60acf3	0.21940975
63	0x3c8f3ec7	0.01748599
64	0x3e511c2e	0.20420906
65	0xbcb28e2d	-0.02179631
66	0xbc9193c4	-0.017770655
67	0x3ddc1b41	0.10747386
68	0x3df72fde	0.12069677
69	0xbcd91ecc	-0.026503943
70	0xbd0b8d23	-0.034070145
71	0x3dda2a60	0.10652614
72	0x3e0dfb55	0.13865407
73	0xbe562d56	-0.20915732
74	0x3e30b648	0.17257035
75	0x3e438774	0.1909464
76	0x3d2121ce	0.03933888
77	0xbd2f6aac	-0.04282634
78	0xbc372c75	-0.011180033
79	0x3b02c6ad	0.0019954846
80	0x3d1f81ae	0.03894203
81	0x3d90fefa	0.07079883
82	0x3e2e13e1	0.1699977
83	0xbe5ab831	-0.21359326
84	0xbdba0aff	-0.090841286
85	0xbdde8722	-0.10865618
86	0x3da66f6c	0.08126721
87	0xbd84853e	-0.064707264
88	0x3c4a506f	0.012348278
89	0xbe48e0d5	-0.19617017
90	0xbc7caa73	-0.015421498
91	0xbd409135	-0.04701348
92	0xbd16406b	-0.036682528
93	0x3e80689f	0.2507982
94	0x3d27baf7	0.040949788
95	0x3d71cf16	0.059035383
96	0xbc812fa0	-0.01576978
97	0xbd5fa733	-0.054602813
98	0xbc3e2183	-0.0116046695
99	0xbe00a795	-0.12563927
100	0x3dea5348	0.11441666
101	0x3e33edaa	0.1757113
102	0x3e09d7f3	0.13461284
103	0x3e42c049	0.19018663
104	0xbe12c130	-0.14331508
105	0xbe6ca1a2	-0.23108533
106	0xbdff1cd5	-0.12456671
107	0x3e1100e9	0.14160503
108	0x3d5b2380	0.053500652
109	0xbe195a8e	-0.1497595
110	0xbc170135	-0.009216596
111	0xbe1e8a22	-0.15482381
112	0xbe096960	-0.13419104
113	0xbe1f6bc7	-0.15568458
114	0xbd9e87f4	-0.07740775
115	0x3e3beb4d	0.18351479
116	0x3e17281f	0.14761399
117	0x3e43b488	0.19111836
118	0xbe1727d2	-0.14761284
119	0x3e149684	0.14510542
120	0xbe5ceb5c	-0.21574157
121	0x3e24b240	0.16083622
122	0x3dbf3f38	0.0933823
123	0xbda7e0f0	-0.081972
124	0x3e03e2a6	0.12879428
125	0xbe23aa64	-0.15982968
126	0xbc9de1af	-0.019272653
127	0x3deec2c5	0.11658243
128	0x3e3380e9	0.17529644
129	0x3e0ce273	0.13758259
130	0x3e4450c1	0.1917143
131	0x3c560ffa	0.013065333
132	0xbc436af7	-0.011927358
133	0xbe01589b	-0.12631457
134	0x3e350182	0.17676356
135	0xbddf6e7b	-0.10909744
136	0xbddbc81d	-0.10731528
137	0x3e15ec2f	0.14640878
138	0x3e54c220	0.20777178
139	0xbe306605	-0.17226417
140	0xbe1d0795	-0.15334924
141	0xbe2ce282	-0.16883281
142	0x3da0709e	0.0783398
143	0xbd824b92	-0.0636207
144	0x3d7d6160	0.061860442
145	0x3df1b9d8	0.11803025
146	0x3e6f4cd0	0.23369145
147	0x3c569911	0.013098017
148	0xbdf9bacb	-0.12193831
149	0x3df624e3	0.12018754
150	0x3d2a29cd	0.04154377
151	0x3ca7160a	0.020396251
152	0x3cdfe3d9	0.027330326
153	0x3df6045c	0.1201255
154	0xbd016ce2	-0.03159798
155	0x3d916d6f	0.07100951
156	0x3d768335	0.060183723
157	0x3d2cd206	0.04219248
158	0x3d18e26e	0.037325315
159	0xbe691757	-0.2276281
160	0xbdc1d93b	-0.094652615
161	0x3d43e6cd	0.04782753
162	0xbe4526b4	-0.19253045
163	0x3e0ad1b7	0.13556562
164	0xbd325d21	-0.043545846
165	0x3e312648	0.1729976
166	0x3e61414d	0.21997567
167	0xbe532871	-0.20620896
168	0xbd855931	-0.065111525
169	0xbcebcb91	-0.028783591
170	0x3d8b44c2	0.06800224
171	0xbdb26c97	-0.08712118
172	0x3d45241c	0.04813014
173	0x3dee6f5f	0.11642336
174	0xbd5ebc9e	-0.054379098
175	0xbe420553	-0.18947344
176	0x3caf4371	0.021394463
177	0xbe817807	-0.25286886
178	0x3e57bf07	0.21068965
179	0xbd47d9e1	-0.04879177
180	0x3da39f2d	0.07989345
181	0x3dec7ada	0.115468696
182	0xbd91231f	-0.07086777
183	0x3dea2f58	0.11434811
184	0x3e101e2d	0.14074011
185	0x3db4c1f5	0.08826057
186	0xbdbd0176	-0.09228794
187	0x3e08e798	0.13369596
188	0xbdab8986	-0.0837584
189	0xbe02f32b	-0.12788074
190	0xbe00ce96	-0.12578806
191	0xbbe5ac6f	-0.007009081
192	0xbd9ea177	-0.07745641
193	0x3e0227f5	0.12710555
194	0xbdc01a7d	-0.09380052
195	0x3d498ae6	0.04920473
196	0x3bb7703f	0.0055980976
197	0x3d72f805	0.05931856
198	0x3e6f5659	0.23372783
199	0xbe8b6dfa	-0.27232343
200	0xbe39dfed	-0.18151827
201	0xbe2a69f1	-0.16641976
202	0xbd4d7a6d	-0.050165582
203	0xbd9a7e90	-0.07543671
204	0x3db1226c	0.086491436
205	0x3df07fd3	0.117431305
206	0x3d617444	0.05504252
207	0xbddd2d45	-0.1079965
208	0x3db3cca9	0.0877927
209	0xbe2286bc	-0.1587171
210	0x3e0c7fcb	0.13720624
211	0x3d248473	0.040165376
212	0xbcaf8f2b	-0.021430572
213	0xbba1d896	-0.004939149
214	0xba88fae6	-0.001045075
215	0x3e79dfb7	0.24401747
216	0xbd5394fc	-0.051655754
217	0xbd1efc22	-0.03881467
218	0x3ded843f	0.115974896
219	0x3cacf446	0.021112572
220	0x3e148054	0.14502078
221	0xbb129419	-0.0022366105
222	0xbd558d4e	-0.05213671
223	0x3ce1fdd5	0.027586857
224	0xbe2464e5	-0.16054113
225	0xbcaba1f3	-0.020951247
226	0xbd865b2d	-0.06560359
227	0xbe0a86d7	-0.13528
228	0x3cce936e	0.025216784
229	0x3e4f89ac	0.20267361
230	0x3dcfe1ca	0.10150488
231	0xbb984141	-0.0046464507
232	0x3de22782	0.11042692
233	0x3b8ffcba	0.004394141
234	0xbe413b09	-0.18870176
235	0x3ceb208a	0.02870204
236	0x3e529a9d	0.20566793
237	0xbb859853	-0.0040769964
238	0xbd07d59d	-0.033162702
239	0x3e67f452	0.22651795
240	0x3dc9c891	0.09852708
241	0xbda421e9	-0.0801428
242	0x3da5cc47	0.080956034
243	0x3e0182de	0.12647578
244	0xbdd843c1	-0.10559798
245	0xbd94f18e	-0.072726354
246	0x3e190b7b	0.14945786
247	0xbcac9e91	-0.021071704
248	0x3d6b5c06	0.057460807
249	0x3d93d80e	0.072189435
250	0xbe2af5b9	-0.16695298
251	0x3d8c1032	0.068390265
252	0xbe2c6ac2	-0.168376
253	0x3d8444cd	0.06458435
254	0x3e53fd4d	0.20702095
255	0x3c416b7e	0.011805413

sequential/batch_normalization/batchnorm/ReadVariableOp_1 f4 [6]
0	0x00000000	0.0
1	0x00000000	0.0
2	0x00000000	0.0
3	0x00000000	0.0
4	0x00000000	0.0
5	0x00000000	0.0

sequential/batch_normalization/batchnorm/Rsqrt f4 [6]
0	0x3f7fdf42	0.9995004
1	0x3f7fdf42	0.9995004
2	0x3f7fdf42	0.9995004
3	0x3f7fdf42	0.9995004
4	0x3f7fdf42	0.9995004
5	0x3f7fdf42	0.9995004

sequential/dense/MatMul1 f4 [64, 128]
0	0x3d830665	0.06397704
1	0x3d9c20dd	0.07623456
2	0xbd70c29f	-0.058779355
3	0x3dc4337f	0.095801346
4	0xbceda73d	-0.02901041
5	0xbb8436f7	-0.0040348726
6	0x3c91e7ae	0.017810669
7	0x3d869367	0.065710835
8	0x3e511c2e	0.20420906
9	0x3e0dfb55	0.13865407
10	0x3d1f81ae	0.03894203
11	0x3c4a506f	0.012348278
12	0xbc812fa0	-0.01576978
13	0xbe12c130	-0.14331508
14	0xbe096960	-0.13419104
15	0xbe5ceb5c	-0.21574157
16	0xbdbd75f8	-0.092510164
17	0xbd67fd74	-0.056638196
18	0x3ddca094	0.10772815
19	0x3e20fdf7	0.1572188
20	0xbd781087	-0.060562637
21	0x3deb1ebf	0.11480474
22	0x3e272b97	0.16325222
23	0x3dd69bad	0.104789115
24	0xbe2d9aa0	-0.16953516
25	0x3d7a1086	0.061050914
26	0x3d277647	0.040884282
27	0xbe20456d	-0.15651484
28	0x3dde62b5	0.108586706
29	0x3e8625bc	0.26200664
30	0xbe185915	-0.14877732
31	0x3dbdf55b	0.092753135
32	0x3e1e344f	0.15449642
33	0x3d6daad4	0.058024243
34	0xbd62cdff	-0.055372234
35	0x3e638da2	0.22221997
36	0x3df12aca	0.117757395
37	0xbe0c219a	-0.13684693
38	0xbdd14730	-0.10218656
39	0xbe3355c1	-0.17513181
40	0xbcbf3032	-0.023338411
41	0x3dcf35ca	0.10117681
42	0xbd91adef	-0.07113253
43	0x3e5d258b	0.21596353
44	0x3dd1f778	0.10252279
45	0xba481870	-0.0007633036
46	0xbd90b559	-0.07065839
47	0x3dff2d45	0.12459806
48	0x3db6dd18	0.08928889
49	0xbe780dca	-0.2422401
50	0x3e6e6514	0.23280746
51	0xbd65561f	-0.055990335
52	0x3d0b50b2	0.034012504
53	0x3d0cb3ee	0.03435128
54	0x3e3a2355	0.1817754
55	0xbe0bd94c	-0.13657111
56	0xbcc08332	-0.023500059
57	0x3db3ed17	0.08785456
58	0xbe4694cc	-0.19392699
59	0x3df14960	0.11781573
60	0x3c728af6	0.014803639
61	0xbd5ccc21	-0.05390561
62	0x3e85c884	0.26129544
63	0x3df657f2	0.12028493
64	0x3d9ea6a0	0.07746625
65	0xbd4a7e21	-0.049436692
66	0x3e389636	0.18026051
67	0xbc73937b	-0.014866705
68	0xbe739961	-0.23788978
69	0x3e869418	0.26284862
70	0xbdfe859c	-0.12427828
71	0x3e1174b1	0.1420467
72	0x3dccd985	0.10002426
73	0x3d52ae52	0.051435776
74	0xbe90ede7	-0.28306505
75	0x3dfaa7c5	0.12239031
76	0xbdb36de9	-0.08761198
77	0x3d8afbba	0.06786294
78	0x3deda75c	0.11604187
79	0xbd5e4db5	-0.054273326
80	0x3d8e0fd0	0.0693661
81	0x3d3a34c9	0.045460496
82	0x3e696322	0.22791722
83	0x3e0d221b	0.13782541
84	0x3d81ea6d	0.06343541
85	0x3d4be527	0.049779084
86	0xbe7a4c8f	-0.24443267
87	0xbdfd45e1	-0.12366844
88	0x3dcb443a	0.099251226
89	0xbddef627	-0.108867936
90	0xbe466b57	-0.19376884
91	0xbe187e4d	-0.1489193
92	0x3ceef9e3	0.02917189
93	0x3d52b1c1	0.05143905
94	0x3e17b3a7	0.14814626
95	0x3b9d1576	0.004793818
96	0xbe0cb984	-0.13742644
97	0x3cd78da8	0.026312664
98	0x3db40227	0.08789473
99	0x3de5d0d3	0.11221471
100	0xbe030629	-0.12795319
101	0xbe0c7f27	-0.1372038
102	0x3d11e596	0.03561934
103	0xbd4ac381	-0.049502853
104	0x3d9cc7be	0.07655285
105	0x3da8a4fa	0.08234592
106	0x3e0b291a	0.13589898
107	0x3dd306c2	0.10304023
108	0x3e852768	0.26006627
109	0x3d47a170	0.048737943
110	0x3dace024	0.08441189
111	0xbd84a32d	-0.06476436
112	0x3e320275	0.1738375
113	0xbe2fd224	-0.17170006
114	0x3d22e5d5	0.039769966
115	0xbe32121e	-0.17389724
116	0x3d8fbf4f	0.07018911
117	0xbe1e5d8c	-0.15465373
118	0x3dda70f7	0.106660776
119	0x3e170cd1	0.14750983
120	0xbe89650c	-0.26834905
121	0x3de466cf	0.11152422
122	0xbd928328	-0.07153922
123	0xbda3c91a	-0.079973415
124	0xbd525f6c	-0.051360533
125	0xbe450bf9	-0.19242848
126	0x3e442eb6	0.19158444
127	0x3db7b66c	0.08970341
128	0x3e3380e9	0.17529644
129	0xbddbc81d	-0.10731528
130	0x3d7d6160	0.061860442
131	0x3cdfe3d9	0.027330326
132	0xbdc1d93b	-0.094652615
133	0xbd855931	-0.065111525
134	0x3caf4371	0.021394463
135	0x3e101e2d	0.14074011
136	0xbd9ea177	-0.07745641
137	0xbe39dfed	-0.18151827
138	0x3db3cca9	0.0877927
139	0xbd5394fc	-0.051655754
140	0xbe2464e5	-0.16054113
141	0x3de22782	0.11042692
142	0x3dc9c891	0.09852708
143	0x3d6b5c06	0.057460807
144	0x3e3b6d3e	0.18303391
145	0x3b8e222c	0.0043375697
146	0x3d0fcdc5	0.035108346
147	0xbd9ac6cc	-0.07557449
148	0xbccabe80	-0.02474904
149	0xbe52a277	-0.20569788
150	0x3e116ec9	0.14202417
151	0xbcc0c6e1	-0.023532333
152	0xbdd88d04	-0.105737716
153	0xbcf7b67f	-0.030238388
154	0x3e57da1b	0.21079294
155	0x3d99e689	0.07514674
156	0x3e4e62c8	0.2015487
157	0x3d2901e9	0.041261587
158	0xbd8b23f9	-0.067939706
159	0x3e7711a1	0.24127819
160	0x3e071420	0.13191271
161	0xbc31b545	-0.010846441
162	0x3e018867	0.1264969
163	0xbd95ae89	-0.073086806
164	0x3e75978f	0.23983596
165	0xbe4775d8	-0.19478548
166	0xbd3ac7de	-0.045600764
167	0x3d4a94b2	0.049458213
168	0x3cb18535	0.021669963
169	0x3e0ba85c	0.13638443
170	0x3d2bb06a	0.04191629
171	0x3e1e3ccc	0.1545288
172	0xbdbd9888	-0.09257609
173	0x3e05c503	0.13063435
174	0xbe13c6c7	-0.14431296
175	0x3e0bebd3	0.13664179
176	0xbcbf4200	-0.023346901
177	0x3e0b9f18	0.13634908
178	0xbe3b10b2	-0.18268088
179	0x3e8f40b8	0.27979064
180	0xbe5bbda2	-0.21459058
181	0x3b95ca1f	0.004571214
182	0xbca4af44	-0.020103104
183	0xbd9783eb	-0.07398208
184	0x3dd50d40	0.10402918
185	0xbc6862ce	-0.014183713
186	0x3e0a7008	0.13519299
187	0x3e00b5a1	0.12569286
188	0x3e179bae	0.14805481
189	0x3e13350c	0.14375705
190	0x3e2b647a	0.16737548
191	0x3ddfbfaf	0.109252326
192	0xbe891377	-0.26772663
193	0x3d339085	0.043838996
194	0xbe788dd0	-0.24272847
195	0xbb42b128	-0.0029707644
196	0x3cd43e6f	0.025908677
197	0xbe5684e7	-0.20949136
198	0xbd80bcbb	-0.062859975
199	0xbe6172a7	-0.22016393
200	0x3dfcc353	0.12341943
201	0xbe242bb0	-0.1603229
202	0x3dfcf040	0.123505116
203	0xbc9a9921	-0.018871846
204	0xbe8dfa60	-0.27730083
205	0x3d975957	0.07390087
206	0xbd37ea8f	-0.044901427
207	0x3cede865	0.029041478
208	0x3e20769d	0.15670247
209	0x3cb50baa	0.022100288
210	0x3dc5c43a	0.09656568
211	0xbd1d00d8	-0.038330883
212	0x3d45ae63	0.04826201
213	0x3cb61106	0.022224914
214	0x3d60471a	0.054755308
215	0x3e72bcf0	0.23704886
216	0xbda0edff	-0.07857894
217	0x3cae5b87	0.021283878
218	0xbd07133c	-0.032977328
219	0xbe22ea63	-0.15909724
220	0x3de6ba0c	0.112659544
221	0xbdf7bd51	-0.12096656
222	0x3def33bc	0.116797894
223	0x3db79c36	0.08965342
224	0xbd494003	-0.049133312
225	0xbcfd940a	-0.03095438
226	0xbe4d2f84	-0.20037657
227	0xbdd140ae	-0.10217415
228	0xbd0070e1	-0.03135765
229	0x3e13ee4d	0.14446373
230	0x3d7b152d	0.06129949
231	0x3e126efb	0.14300148
232	0xbdeda1fa	-0.1160316
233	0x3df11d63	0.11773183
234	0x3e119ffa	0.14221182
235	0x3e918040	0.2841816
236	0x3d5a2ce7	0.05326548
237	0x3dd65ffa	0.10467525
238	0xbd2797b0	-0.040916145
239	0x3e20dbf2	0.15708902
240	0x3cac8982	0.021061663
241	0x3da750c2	0.081697
242	0x3e7693cf	0.24079822
243	0x3c909f96	0.017654222
244	0x3d07c781	0.033149246
245	0x3d58eabc	0.052958235
246	0x3d1cac9f	0.03825056
247	0xbe6e0b8a	-0.2324659
248	0x3d7310ad	0.059342075
249	0x3d4dd4af	0.05025166
250	0xbe63c604	-0.22243506
251	0x3e2f0fcd	0.17095871
252	0x3db9cb5e	0.09071992
253	0xbcb10cf3	-0.02161262
254	0x3b22e989	0.0024858436
255	0x3daf0a47	0.08546882

sequential/dense_1/MatMul f4 [4, 64]
0	0xbd3d3820	-0.046196103
1	0xbd85c6d4	-0.06532064
2	0x3e74250c	0.23842257
3	0xbe337c68	-0.17527926
4	0x3e176c18	0.14787328
5	0xbe917204	-0.284073
6	0xbc4f6900	-0.012659311
7	0x3d895168	0.0670498
8	0x3d81b9a0	0.06334233
9	0x3dcc32ac	0.099706024
10	0x3e1bc7c6	0.15212926
11	0x3e89a53a	0.2688387
12	0x3cd91060	0.026497066
13	0x3de51108	0.11184889
14	0x3d80feb4	0.06298581
15	0x3e915ff2	0.28393513
16	0xbe7b1b3e	-0.24522111
17	0x3e45f700	0.19332504
18	0xbd34e088	-0.044159442
19	0x3e620d28	0.22075331
20	0xbe084089	-0.13305868
21	0xbe24e6ee	-0.16103718
22	0xbe60e7a6	-0.21963367
23	0x3c278240	0.010223925
24	0x3d8af10c	0.06784257
25	0xbcec6460	-0.028856456
26	0xbd6ae2e4	-0.057345286
27	0xbe24d475	-0.16096671
28	0x3e6219d4	0.22080165
29	0x3dfb5620	0.122722864
30	0xbdd090c8	-0.10183865
31	0xbe49f81f	-0.19723557
32	0xbe68b8df	-0.22726773
33	0xbdb12da0	-0.086512804
34	0xbe727e94	-0.23681098
35	0xbe14f02d	-0.14544745
36	0x3e95c28e	0.29249996
37	0xbe372ee6	-0.17888984
38	0xbe88d7ef	-0.26727244
39	0xbdfe690a	-0.12422378
40	0xbdc014c0	-0.09378958
41	0x3e56203c	0.20910734
42	0xbd1623d0	-0.036655247
43	0x3e0965e2	0.13417771
44	0x3d8bb29c	0.068211764
45	0xbe26da51	-0.16294219
46	0x3e60b33c	0.21943372
47	0x3e966884	0.29376614
48	0x3e95e0fc	0.29273212
49	0x3e3adc92	0.18248203
50	0xbdf16fe6	-0.11788921
51	0xbe48a733	-0.19595031
52	0xbd80495e	-0.06263994
53	0xbad9e200	-0.0016623139
54	0xbe845f6f	-0.2585406
55	0xbdd194ce	-0.1023346
56	0xbe26c22a	-0.16285005
57	0xbe035fb5	-0.12829478
58	0x3e5b185c	0.21396011
59	0xbcdd3970	-0.027004927
60	0x3e6644ac	0.22487134
61	0x3d538908	0.051644355
62	0x3e7ec644	0.2488032
63	0xbe438b2a	-0.19096056
64	0xbe872549	-0.26395634
65	0x3e196ec2	0.14983657
66	0xbe8173d6	-0.25283688
67	0x3e2963a4	0.16541916
68	0x3d639dd8	0.055570453
69	0xbc30d120	-0.010792047
70	0xbe02877f	-0.12747
71	0x3d62aa68	0.055338293
72	0xbd95bff0	-0.07312
73	0x3ca73080	0.020408869
74	0xbd4d0b24	-0.050059453
75	0xbe798194	-0.24365836
76	0xbe16a600	-0.14711761
77	0x3e51c0b0	0.2048366
78	0x3d355850	0.044273674
79	0x3c6a2c40	0.014292777
80	0x3e1deb06	0.15421686
81	0x3e331006	0.17486581
82	0x3e1fe350	0.15614057
83	0xbe4d4570	-0.2004602
84	0x3e5a8e94	0.21343452
85	0xbdfc006a	-0.123047665
86	0xbe0df50c	-0.13863009
87	0xbd3ac678	-0.04559943
88	0xbe801f38	-0.25023818
89	0xbdc27ca2	-0.09496428
90	0xbe5c3d40	-0.2150774
91	0x3d282c20	0.041057706
92	0xbe76070a	-0.24026123
93	0x3db5cc20	0.088768244
94	0xbe8ad03c	-0.27111995
95	0xbdc7097e	-0.09718607
96	0x3e3708ac	0.17874402
97	0x3e8248ba	0.2544611
98	0x3d40ea00	0.04709816
99	0xbe69ec92	-0.2284415
100	0x3e9737f6	0.29534882
101	0x3e3e084c	0.18557853
102	0x3e87cbe8	0.26522756
103	0xbd55d39c	-0.05220376
104	0x3db426b8	0.087964475
105	0x3dfccd38	0.1234383
106	0xbce6eb10	-0.028188258
107	0xbdb71f02	-0.08941461
108	0xbd90118a	-0.07034595
109	0xbe11548e	-0.14192411
110	0x3e816dea	0.2527917
111	0x3e7c94b4	0.246661
112	0xbe399d99	-0.18126525
113	0x3e91a302	0.28444678
114	0x3e52b9ec	0.20578736
115	0x3e3f5ca2	0.1868768
116	0xbb52f280	-0.0032187998
117	0xbdad9096	-0.08474843
118	0x3e916504	0.2839738
119	0x3ddf9f28	0.109190285
120	0x3df934e8	0.12168294
121	0x3de6f2fc	0.11276814
122	0x3e51dec8	0.2049514
123	0xbe26ff56	-0.1630834
124	0xbe454cb0	-0.19267535
125	0xbe213f00	-0.15746689
126	0xbd8a8e3e	-0.06765412
127	0x3e2f998c	0.17148417
128	0xbe15a96c	-0.1461541
129	0xbe5c6bc2	-0.21525481
130	0xbc9cc770	-0.019138068
131	0x3e67e6a4	0.22646576
132	0xbe7e370f	-0.2482569
133	0x3e8d942a	0.27652103
134	0x3e859a18	0.26094127
135	0xbde1abe2	-0.11019112
136	0xbe8b36c0	-0.27190208
137	0xbe7be6b2	-0.24599722
138	0x3e936366	0.28786772
139	0xbe11ba46	-0.14231214
140	0x3e729b9c	0.23692173
141	0x3c8e01a0	0.01733476
142	0xbe443730	-0.19161677
143	0x3e88de10	0.2673192
144	0x3e8506fc	0.2598189
145	0x3d4a72a8	0.04942575
146	0x3e3d4684	0.18483931
147	0x3e901540	0.28141212
148	0xbc860790	-0.016361028
149	0x3e24a536	0.16078648
150	0x3e95b3b0	0.29238653
151	0xbdb4cfb4	-0.08828679
152	0x3dd7cdec	0.10537323
153	0xbd9a2bca	-0.07527883
154	0x3d8c4780	0.06849575
155	0xbc9ba240	-0.018998265
156	0x3d337300	0.043810844
157	0xbe7996d6	-0.24373946
158	0xbe8827e2	-0.26592928
159	0xbe08761d	-0.13326307
160	0x3d322088	0.043488055
161	0x3d9ab8d0	0.075547814
162	0x3d8aaf70	0.06771743
163	0xbb9e6800	-0.004834175
164	0x3e52cfa8	0.20587027
165	0xbe4ef996	-0.20212397
166	0xbdd50c0a	-0.10402687
167	0x3d4bbdd8	0.049741596
168	0xbe866d1e	-0.26255125
169	0xbe89ef2d	-0.2694029
170	0x3e07cd1e	0.1326184
171	0xbe82ffa1	-0.25585654
172	0xbce7ada0	-0.028281033
173	0x3e2c5ffc	0.1683349
174	0x3de1b840	0.11021471
175	0x3de1f7e4	0.110336095
176	0x3db658a0	0.089036226
177	0x3d25a040	0.04043603
178	0x3e73df48	0.23815644
179	0xbddf0594	-0.10889736
180	0x3a48b000	0.00076556206
181	0xbe648931	-0.2231796
182	0x3e2288a0	0.15872431
183	0xbc84b4f0	-0.016199559
184	0xbe89921c	-0.26869285
185	0xbe7086a4	-0.23488861
186	0xbcca9840	-0.024730802
187	0x3cdc40f0	0.026886433
188	0x3d095828	0.033531338
189	0x3da2c3bc	0.079474896
190	0x3df17bbc	0.117911786
191	0xbe81ad96	-0.25327748
192	0xbdddb8c8	-0.1082626
193	0xbe552089	-0.20813192
194	0xbdf0be86	-0.117550895
195	0xbe1312c1	-0.14362623
196	0x3da76ab4	0.08174649
197	0xbe68326c	-0.22675484
198	0x3e38cbf0	0.18046546
199	0xbe80c82c	-0.2515272
200	0xbe389536	-0.1802567
201	0xbe9792d4	-0.29604208
202	0xbe1a7b79	-0.15086164
203	0xbdcc9b3a	-0.099905446
204	0x3c3708a0	0.01117149
205	0xbe75f4bc	-0.2401914
206	0x3e901afa	0.2814558
207	0x3b5ab900	0.0033374429
208	0xbe560270	-0.20899367
209	0xbe45bab8	-0.19309509
210	0x3dc9e0b0	0.09857309
211	0xbd12df10	-0.03585726
212	0xbe37801a	-0.1791996
213	0x3e295f7a	0.16540328
214	0xbe337a08	-0.1752702
215	0xbe67ab60	-0.22623968
216	0x3e96bddc	0.29441726
217	0xbdf2027c	-0.1181688
218	0x3d94f7bc	0.07273814
219	0xbc99f5c0	-0.01879394
220	0x3d950670	0.072766185
221	0x3deb5b34	0.11492005
222	0xbd4ee5e4	-0.05051221
223	0x3e91d8be	0.28485674
224	0x3e4a9c16	0.19786105
225	0xbcabe5f0	-0.020983666
226	0x3e5da698	0.21645582
227	0xbe0c275e	-0.13686892
228	0xbd312c10	-0.043254912
229	0x3e081500	0.13289261
230	0x3e97c5bc	0.29643047
231	0xbe397122	-0.18109563
232	0x3e059f52	0.13049057
233	0x3e047848	0.12936509
234	0xbd9bb2b4	-0.07602444
235	0xbe78dd26	-0.24303111
236	0x3e68c200	0.22730255
237	0x3e7090a8	0.23492682
238	0x3e393a4a	0.18088642
239	0xbe55d972	-0.2088373
240	0x3cbe79c0	0.023251414
241	0xbdbbe358	-0.09174222
242	0x3e3c64f2	0.18397883
243	0xbd5c721c	-0.05381976
244	0xbe782f14	-0.24236709
245	0x3e40de0c	0.18834704
246	0x3d2910d8	0.04127583
247	0x3e6a53b4	0.22883493
248	0xbe474482	-0.19459727
249	0xbe340f76	-0.17584023
250	0xbe269d7f	-0.16271017
251	0x3d15a7f8	0.03653714
252	0x3e59ca70	0.2126863
253	0xbe8ed9fe	-0.2790069
254	0xbe8ee294	-0.2790724
255	0xbdc34796	-0.09535138
